data/models/rust-drl.safetensors (safetensors, 100820 bytes, 1 tensors)

weights f4 [25105]
000000 70 76 32 3c 02 e9 1d 3e 22 ad 0a 3d f4 21 1d bd
       0.0108924955 0.15420917 0.03385652 -0.03836246
000010 ad 57 4d be 56 51 0c bd 93 09 cb bd 39 a9 f1 bd
       -0.20052977 -0.034257255 -0.099139355 -0.11799855
000020 a7 32 a4 bd 6e df 09 be 63 8b 86 bc d4 49 6d 3e
       -0.08017474 -0.13464138 -0.016423887 0.23172694
000030 ef 22 0c be c0 03 9e 39 0f 6a 04 3e 14 8b af 3d
       -0.13685201 0.00030138902 0.12931083 0.08571449
000040 80 35 10 be 1b d8 25 3d 5a 44 a1 3d 8e 3f 83 bb
       -0.14082909 0.040489297 0.07874365 -0.004005379
000050 72 62 9a bd cc 34 57 3e 4e fc c4 bd 17 7d f5 3d
       -0.07538308 0.21016234 -0.09618436 0.119867496
000060 c1 26 12 3e e7 a8 0b 3e 35 9e c6 3d 97 37 16 be
       0.14272596 0.1363865 0.09698144 -0.14669643
000070 b2 93 3c 3d ad 92 cb 3b dd fe 9d 3c a0 29 ad bd
       0.04603929 0.0062125535 0.019286567 -0.08455205
000080 ce 36 e2 bd e8 fc b6 bd 69 97 c1 3d 2d b2 a5 3c
       -0.110456094 -0.08934957 0.09452707 0.020226562
000090 3b fa 51 3d fa 00 a0 bd 82 92 d1 3d 88 4e 33 3d
       0.05126403 -0.07812686 0.10233022 0.043776065
0000a0 ff 72 8c 3d f0 04 db bd 0e 16 c3 3d e2 b5 89 3c
       0.06857871 -0.10694301 0.09525691 0.016810361
0000b0 0d 60 57 bd 3a 57 d7 3d 9b 7a a5 bd f6 d6 32 3e
       -0.052581836 0.10514684 -0.08080026 0.17464814
0000c0 ba 8c a6 bd b3 50 00 3d 76 81 c3 3d f4 96 94 3d
       -0.0813231 0.03132696 0.09546177 0.072553545
0000d0 c1 41 af bd 77 1e 07 3d 67 a7 d5 bd c3 23 b2 3c
       -0.085574634 0.032988038 -0.1043232 0.021745568
0000e0 70 3f 68 3d 70 e9 01 3e 44 70 d6 bd fc b9 4b 3d
       0.056701124 0.12686706 -0.10470632 0.049737915
0000f0 3b 18 93 bd 3f 89 70 3d f7 c9 a2 bd 86 5a 94 3c
       -0.07182356 0.058724638 -0.07948678 0.018109571
000100 d5 c7 c1 3d 99 8c 24 3e 0d 84 a0 3d 79 94 b6 bd
       0.09461943 0.16069259 0.07837687 -0.08915038
000110 19 f9 d2 bd 38 47 72 bc ac 95 ac bd 59 ba 1c 3e
       -0.10301418 -0.014787488 -0.08426985 0.15305461
000120 5f 7e 98 3d 16 ac 62 3c cf c9 c4 ba ea 27 9a bd
       0.074459784 0.013834974 -0.0015013757 -0.07527144
000130 4c 2b e3 3d b3 1e 9a bd 9d f1 f0 3d a5 d4 99 3d
       0.110922426 -0.07525387 0.11764834 0.07511262
000140 5f 85 cb bd 42 8d 0a bc 84 ed 07 be c2 5f ea 3d
       -0.09937548 -0.00845653 -0.13274199 0.114440456
000150 af dc db bd 01 ff 1e 3d 36 46 11 bd 40 7c 17 bc
       -0.107354514 0.03881741 -0.03546735 -0.009245932
000160 37 7b 90 bd 7d a9 44 bd 65 01 80 3d 37 7a 99 3c
       -0.07054751 -0.0480132 0.06250266 0.018735034
000170 df d4 b6 3d 53 80 7d bb 43 8d b4 3d a5 70 33 bd
       0.08927321 -0.0038681224 0.08816006 -0.043808598
000180 ec fe 2e 3d b9 12 07 3d 25 0e 6a bd 4a 85 fc 3c
       0.04272358 0.03297684 -0.057142396 0.030825276
000190 21 98 f1 bd cc d3 28 3e af 3c ba bd cb 77 2c 3e
       -0.117965944 0.16487044 -0.09093606 0.16842572
0001a0 ea d7 07 3d d6 36 0d 3d 8c 41 4d 3d 87 ff b8 bd
       0.033164896 0.034476124 0.05011134 -0.09033113
0001b0 33 b6 a1 3c 95 82 ec 3d b7 99 04 be bd 38 2b 3d
       0.0197402 0.11548344 -0.12949263 0.041802157
0001c0 05 04 8d bd bc da 98 bb 19 7a b7 3c 3a cb da bd
       -0.06885532 -0.004664747 0.022397088 -0.10683294
0001d0 25 f2 13 bd 3a 6a 8a 3d 1c 9b a6 3d 9d 6a bc 3d
       -0.0361196 0.06758542 0.081350535 0.09200022
0001e0 5a b0 c2 3d 9e 6a ce b9 a8 95 51 bd 12 fe 93 bb
       0.09506293 -0.00039370818 -0.051168114 -0.0045163715
0001f0 4e 85 8b 3d 20 4a a5 3d 69 b6 02 bd d1 9a 61 3d
       0.06812535 0.08070779 -0.03191224 0.055079285
000200 40 78 84 3b e0 67 3c 3d 83 30 1e bd 10 ea ae 3d
       0.004042655 0.0459975 -0.038620483 0.08540738
000210 a4 26 d2 bd 85 2f 80 bc 82 44 5e bd e1 81 b7 bb
       -0.10261276 -0.01564766 -0.054264553 -0.0056001996
000220 e7 a5 19 3d 95 48 26 3d a1 af 0c bd a8 09 f7 bd
       0.037511732 0.040596563 -0.03434718 -0.12062389
000230 6a 70 96 3d af 16 05 bb fe 18 c6 bd ae 52 e4 bd
       0.0734566 -0.002030771 -0.09672736 -0.111485824
000240 1c c5 85 3d ad 9e c7 3d 56 1e 73 bd f4 26 f1 bd
       0.06531736 0.09747062 -0.059355102 -0.11775008
000250 a3 80 28 bc f3 20 98 3d f5 84 2e be 48 5c 97 bc
       -0.010284576 0.074281596 -0.17042907 -0.01847662
000260 15 38 aa 3d 28 c3 cf 3d 1c a0 41 3c d8 03 1b 3e
       0.08311478 0.10144645 0.011817958 0.15138185
000270 42 cf b1 bd 76 5a f4 bd 2c 0a f1 bd 08 1a 52 be
       -0.086821094 -0.119313166 -0.11769518 -0.20517743
000280 6e 35 93 bd b5 e2 50 bd 6a 70 2f 3d 5b 47 6a 3d
       -0.07187925 -0.050997455 0.042831816 0.057196956
000290 5b 70 2c 3d 45 6d 11 3e bb dd 6a bd bd d1 f8 bd
       0.042099338 0.1420184 -0.057340365 -0.121493794
0002a0 b7 37 01 3e 74 63 67 3d 12 83 f3 bc 91 13 99 bc
       0.1261891 0.05649133 -0.029725585 -0.018686088
0002b0 20 c6 a1 3d b1 cd 15 3e 68 d7 c6 3c e1 3e 2f bd
       0.078991175 0.14629246 0.024272636 -0.042784575
0002c0 40 16 98 3d 18 03 56 bd 40 4a d7 bd 53 29 ab 3c
       0.07426119 -0.052249044 -0.10512209 0.020893728
0002d0 b8 57 2f b9 98 99 28 3e 8d ae fd bc c1 4b 2a 3a
       -0.00016721978 0.16464841 -0.030967021 0.00064962736
0002e0 b6 cc da 39 bc 09 6a bd d0 8a f4 bb 03 a1 25 3e
       0.00041732722 -0.05713819 -0.007462837 0.16174702
0002f0 04 47 dd bd 42 27 fa bc d6 46 97 bd 01 d1 bb bc
       -0.10804561 -0.030536298 -0.07386558 -0.02292681
000300 bf bb 06 3e 57 9c 0a be 46 06 f0 3c 7d 05 32 3d
       0.13157557 -0.13536201 0.029299866 0.043462265
000310 14 a9 cc 3d 93 e0 c0 bd 08 cf 76 bd 6c 4c 84 bd
       0.099931866 -0.09417834 -0.060256034 -0.06459889
000320 3b 11 97 bd 0e a9 c4 bd 87 9e a6 3d c0 c1 a5 3d
       -0.07376333 -0.09602557 0.081357054 0.080935955
000330 63 d6 8d 3c a2 36 21 be d4 d9 c2 3d 6c b4 77 bd
       0.017314142 -0.15743497 0.09514204 -0.060474798
000340 c9 1b e1 3c fa 75 5c 3d 6a a6 e6 3d 09 a0 8e 3d
       0.02747907 0.05382345 0.1126221 0.06964118
000350 b9 12 ad 3d 35 01 46 3e e2 1c 34 be 06 a1 dc bc
       0.08450837 0.19336398 -0.17589143 -0.02693225
000360 c0 21 e6 3c 19 00 ad bc 70 88 8d 3c c2 ec 66 bd
       0.028092265 -0.02111821 0.017276973 -0.056378134
000370 a6 59 ed 3d 7e e6 a8 bd a1 50 98 bd 7a 3d ca bd
       0.11589365 -0.08247088 -0.07437254 -0.09875007
000380 db 82 e8 3d 12 f2 fc bd cd 99 29 3e ec 67 b8 bd
       0.11353084 -0.12350859 0.16562577 -0.090041965
000390 37 d1 e4 bc 25 a8 b0 bd d2 f6 36 3e 18 31 05 3e
       -0.027931793 -0.08625821 0.17867592 0.13007009
0003a0 c9 d6 16 3e 36 16 21 3e e6 21 e9 3d a3 c1 8c 3c
       0.14730372 0.15731129 0.11383419 0.017182177
0003b0 50 6f 36 3e 32 78 8c 3d d3 3b e7 bd 5f fd 12 3e
       0.178159 0.06858863 -0.112907074 0.14354466
0003c0 7f 29 85 bd 91 1a ab 3d 93 09 e5 bd 05 c1 35 3e
       -0.065020554 0.083546765 -0.11183467 0.17749412
0003d0 4e 6c 0d 3e f6 51 b1 bd c4 9c 66 3c 7d ae 1a 3e
       0.13810846 -0.08658211 0.014075462 0.15105624
0003e0 12 72 d5 3b 05 89 39 3e ea 8d 8b bc d6 40 a7 3d
       0.0065138424 0.18118675 -0.017035443 0.08166663
0003f0 01 09 43 3c 01 ff 8d 3d 42 14 0f 3d 28 72 f2 bd
       0.011904002 0.06933404 0.03493143 -0.1183818
